onnx/ESPCN.onnx (onnx, 86355 bytes, 6 tensors)

feature_maps.0.bias f4 [64]
00000000: e103 cbbe 92f3 ef3e 19b2 87bd 27de 893f
00000010: ff2b e33f ddb3 3abe b79a be3e bbdd 9ebe
00000020: 3120 14bd 1ff7 343e 0179 c23e 1029 4f3f
00000030: 542b 123f 28eb ddbd 55d9 67be 413f 48be
00000040: 7fe8 c43e 747e 483f 8d56 1cbf 339e 383f
00000050: 8409 40bf 72fc 0cbf 5365 00bf 0254 263f
00000060: e006 e63e 1269 a73e 7370 1b3f 1823 0c3e
00000070: c1f9 0f3f 6b08 0a3f f7f5 89bc 5ae7 043f
00000080: 0d56 38bf 3646 43bf ff14 11bf 6ec6 34bf
00000090: 1e3a f8be 31db 0f3f 3365 193e 1087 493f
000000a0: 8a7f a23e 59b5 b5be 0ea6 42bf 44e8 3abf
000000b0: 8754 2e3f d6e9 793f b83a 593f ba71 afbe
000000c0: c78f f2bd 832e 20be 1a1a 28bf a36e 27be
000000d0: 06a8 c7be 6939 cbbe 201c 25bf a591 733e
000000e0: f873 0f3f eea5 9d3e 51fb 4dbe 279a cebe
000000f0: bc1c 25bf 2d31 13bf 47d2 0a3f d500 913e
-0.39651397 0.46865517 -0.06625766 1.077092 1.7747802 -0.18232675 0.37227413 -0.31028542
-0.036163513 0.17672394 0.37982944 0.8092203 0.57097363 -0.10835868 -0.226415 -0.1955538
0.3845863 0.7831795 -0.61069566 0.7211639 -0.7501452 -0.550727 -0.5015461 0.64971936
0.4492712 0.3269735 0.6071846 0.13685262 0.5624047 0.53919095 -0.016840918 0.51915514
-0.72006303 -0.7627901 -0.5667266 -0.7061528 -0.4848184 0.56193835 0.1498001 0.78721714
0.3173793 -0.3548992 -0.7603463 -0.7301066 0.6809773 0.9762243 0.8485522 -0.34266454
-0.118438296 -0.15642743 -0.6566483 -0.16350798 -0.3899538 -0.39692238 -0.6449604 0.23786028
0.5603633 0.30790657 -0.20115401 -0.40351984 -0.6449697 -0.5749691 0.5422711 0.28320947

feature_maps.0.weight f4 [64, 1, 5, 5]
00000000: 3aff 6ebe 653c ffbd 8a6a cfbe f093 0cbf
00000010: c144 c0be f2ac 5abe d072 54bd 26ca b13e
00000020: ed66 d0be 4377 2abe d7cf f1be 0f4b 33be
00000030: 603b fabe 9129 2fbf e75e 72be fd39 c6be
00000040: 2c53 4a3d 8e3c 773e 01be 0fbf 303b 93be
00000050: d9c3 b4be 22d9 1ebe 7a3e 85be 658e 74be
00000060: c21f bdbe ba20 25be 9933 5a3d 5e80 80be
00000070: ebe8 48be 09a9 33be 05d4 6abe d3b6 c83d
00000080: 1c5f b0be bba0 8ebe bd4b 89be e282 95be
00000090: fef8 c0be 3fbc a73d 991b 85bd fc17 84bd
000000a0: d790 aabd 4499 8cbe d0fa f6bd 786c d2be
000000b0: 7506 5fbe 3860 52be ec40 443d 035c bebc
000000c0: 96f2 2ebe 4bc9 9abd 2aa5 383d cf35 19be
000000d0: a2f1 9c3e 91a1 763d 7c9d ebbd 1b96 cfbe
000000e0: 5296 a63e a4f6 8fbe a72a 8cbe 7145 913e
000000f0: 032a dcbd fb6b 0d3f 110d 31bf bf89 053f
00000100: e6b1 32be 035d b13d fbb9 b4be 51cd ed3e
00000110: 57dd fc3e 0703 b1bd df73 84be 0cb9 52bd
00000120: 40e6 963d 3b84 41be 7ed7 fd3d 79ce b13e
00000130: 5fc1 1a3f bd9e 943e 206d 883c 684c fbbd
00000140: 76e9 8a3e ad74 be3f a124 ad3f d467 cfbd
00000150: 3d21 8eba a25c aa3e dca3 993f 3e43 8a3f
00000160: 7d25 983e 277a 54be a4b6 453e dab4 5c3f
00000170: 3a2a 5c3f 4bd2 2dbe 53af b4be 568f 0cbe
00000180: a1ab a43e 7245 ff3d 5827 d9be 2e9d bbbd
00000190: 58dc 9d3e be58 a43e 416c a33e bd0c b63e
000001a0: a2fa 5a3d 45a9 ea3e 52ab b73e 9a71 093f
000001b0: e51b 2e3f aad8 c23e 4e92 263f e547 8e3f
000001c0: 01dd a13f 94f1 c53f ed3e 403f e4dc 393f
000001d0: 4ebb 803f 95b8 c53f 2635 b13f a99c 4f3f
000001e0: 9527 2e3f 4f4e 293f e891 453f ee4b 5e3f
000001f0: f347 973e d08e 58be 18bb 5dbe f923 7fbd
00000200: 5e8d 3bbe c847 91be 46ad acbe fdd1 ecbd
00000210: e118 49bf 34b7 8cbe 28ef 18be 3fca abbd
00000220: 7845 e2bd 74d4 03be 71bc 4c3e d751 c33d
00000230: b59d 29be b616 893e c88f 083f 3a0d ecbe
00000240: 4d30 66be 0679 c9be fb9c 28be 66f4 c3be
00000250: e1c6 50be 56da dfbd 49e6 413e 573b fc3c
00000260: 47ab 6b3e f2f7 963e 4384 853e 9c7e 923c
00000270: 2107 c23e b62c d9bb 28e8 863e a0af d53d
00000280: cffb aa3e cade 893e 13fd c3bc 4b73 313d
00000290: bef5 873e 2873 893e a78d 493d 3179 ef3e
000002a0: a904 febc 7428 063e 7937 c33e 4a98 5c3e
000002b0: 9f88 db3e f484 7b3e c4f9 79bd cd3f 9fbc
000002c0: c500 86be 6267 3dbf ccce 2fbe 110c 91be
000002d0: e9f3 0ebe f6cd b4be 5632 773f ba7f fe3e
000002e0: de7a a0be ea6e 2dbe 0a2a 2a3e dcdd 36bf
000002f0: 6bab 09bf 1a92 de3d 9eb7 c0be 342a 173f
00000300: 26fc 5fbf c288 40be 0a70 e9be eec7 7abe
00000310: 7a35 2fbf 7fa5 613d 6a11 b3be d894 a5ba
00000320: 413a 19be 46c8 ee3d b71a 36be 2b5f 31be
00000330: 1745 40be f8ab f83d 7b72 65bd 3f7e f83e
00000340: 455a cb3c 804b 9bbd 6bad 52bd d703 3ebd
00000350: fb3b bf3e 208b 90bd ddc5 263c 3aaf 693b
00000360: 58e1 73be 0de4 a0be 38a8 843e bfe4 96be
00000370: fe98 a6bd bd48 c23d 580b 353d fe28 eabd
00000380: 0201 2abe 52c8 1a3e 3f58 6ebe 5c8a d9bd
00000390: bfeb 47be 7cf0 e9bc 4cd5 a5bc 4a02 d83e
000003a0: bfeb cd3e 3924 1e3f 9c71 fdbc acd9 39be
000003b0: d803 cb3e 49d6 14bf 080b b5bc 18b2 383e
000003c0: 9536 c93d e3b4 1a3f 44a8 cfbd e264 633e
000003d0: ba1e f73d 0d65 95be 9700 55bb 4296 2ebe
000003e0: 9101 50bd 92ab d1bd 9674 563b 51e9 673e
000003f0: 07d4 e43e e59f cd3d 1940 e8ba 3738 b63d
-0.23339549 -0.12462691 -0.4051097 -0.54913235 -0.37552455 -0.21355036 -0.051867306 0.3472454
-0.40703526 -0.16647057 -0.47228882 -0.17509101 -0.48873425 -0.684228 -0.23669015 -0.38716117
0.049395725 0.24144194 -0.561493 -0.28756094 -0.3530567 -0.15512517 -0.26024228 -0.23882444
-0.36938292 -0.16125765 0.053271864 -0.25097936 -0.19620101 -0.1754495 -0.22932442 0.09800496
-0.34447563 -0.27857003 -0.26815596 -0.29201418 -0.37689966 0.08190202 -0.064994045 -0.06449887
-0.08328407 -0.27460682 -0.120595574 -0.4109838 -0.21779807 -0.20544517 0.047913477 -0.023237234
-0.17084727 -0.07557925 0.045079388 -0.14961933 0.306531 0.060212675 -0.11504647 -0.4054421
0.3253656 -0.2811786 -0.2737629 0.28373292 -0.107502006 0.5524289 -0.6916056 0.5216331
-0.17450675 0.08660319 -0.35298142 0.46445706 0.4938762 -0.086431555 -0.25869653 -0.051446006
0.073681355 -0.18898098 0.123946175 0.3472784 0.6045131 0.29027358 0.016653597 -0.12270433
0.27131242 1.4879357 1.3526803 -0.101272255 -0.0010843646 0.33273798 1.2003131 1.0801771
0.297161 -0.20749722 0.19307953 0.8621346 0.8600193 -0.16974752 -0.35290012 -0.13726553
0.32162192 0.124644175 -0.4241283 -0.09160839 0.3083217 0.32098955 0.3191853 0.35556594
0.05346168 0.45832267 0.35872895 0.5368897 0.68011314 0.38055927 0.65066993 1.111569
1.264557 1.5464349 0.7509602 0.7260268 1.0057161 1.5446955 1.3844345 0.8109842
0.6802915 0.66135114 0.7717576 0.8683461 0.2954708 -0.21148229 -0.21653402 -0.062290166
-0.18315646 -0.28375077 -0.33725947 -0.115634896 -0.7855359 -0.27483523 -0.14934981 -0.08388185
-0.11048406 -0.12874013 0.1999376 0.09537094 -0.16564067 0.2677514 0.5334439 -0.4610384
-0.22479363 -0.39350146 -0.16466133 -0.382724 -0.20388366 -0.10930316 0.18935503 0.030790014
0.23014556 0.29486042 0.2607747 0.017882638 0.37896064 -0.0066276444 0.26348996 0.104338884
0.3339524 0.26927787 -0.023924386 0.043322843 0.26554674 0.2684567 0.049207356 0.4677215
-0.031008082 0.13101369 0.3812826 0.21542469 0.4287767 0.24562436 -0.06102921 -0.019439602
-0.26172462 -0.73985875 -0.1716873 -0.28329518 -0.13960232 -0.35313386 0.9656118 0.49706823
-0.3134374 -0.16936842 0.16617599 -0.7143228 -0.5377719 0.108677104 -0.3764009 0.5904877
-0.87494123 -0.18802169 -0.45593292 -0.2449033 -0.68440974 0.05508947 -0.34974223 -0.001263286
-0.14963628 0.11659293 -0.17783628 -0.1732146 -0.18776356 0.121421754 -0.05601738 0.48533818
0.024823317 -0.0758276 -0.051434916 -0.04639038 0.3735045 -0.07057786 0.01017901 0.0035657422
-0.2381643 -0.3142399 0.2590959 -0.29471394 -0.0813465 0.0948653 0.04420027 -0.114336
-0.16601947 0.15115479 -0.2327585 -0.10622093 -0.19523524 -0.028557055 -0.02024331 0.42189246
0.40218922 0.6177402 -0.030937962 -0.18149441 0.3965137 -0.58139473 -0.022099987 0.18036687
0.09824864 0.6043226 -0.10139516 0.22206452 0.120664075 -0.29178658 -0.0032501572 -0.17049506
-0.050782744 -0.102378026 0.00327233 0.22647597 0.44693014 0.10040263 -0.0017719298 0.08897441

feature_maps.2.bias f4 [32]
00000000: 0b1e 333e 0a5b 2c3c 16af 883d 7e71 603e
00000010: dab8 933d c4ab 4a3d 6395 4dbe b796 583e
00000020: b7d0 bebb 962d bcbc c667 9c3e cd1e ea3d
00000030: d63a f83d d1cd ec3d 716c ab3e 65ae 83be
00000040: 836c a03e f8d0 efbe 5e4d 02be f0a2 84be
00000050: c64b 28bd 36e1 76bd 3cc8 0b3e 4d57 133e
00000060: 6ef1 4fbe dc02 c73d 487f 5a3d db9d 07bf
00000070: 1ed9 b7be 2900 babd edca c33e b2dc a4bd
0.17491929 0.010519752 0.0667402 0.21918294 0.07212992 0.049480215 -0.20076518 0.21151243
-0.0058232206 -0.022970956 0.30547923 0.11431656 0.12120597 0.11562694 0.33481172 -0.2571899
0.31332788 -0.46839118 -0.12724826 -0.2590556 -0.04108789 -0.06027337 0.13650602 0.14388771
-0.20306942 0.09717342 0.05334404 -0.52975243 -0.35907835 -0.09082062 0.38240758 -0.08049907

feature_maps.2.weight f4 [32, 64, 3, 3]
00000000: 2581 55bd df8c 8bbe 8cee a6be e907 0f3e
00000010: 21eb 093e 193b 3ebe f0a6 26bc 5701 89be
00000020: ada6 52be be4a 173f 437a 3a3e c831 003f
00000030: 10cd 4b3e 413c 1dbe 695a 163f a048 e93e
00000040: 022b 153f 740a b5bd c43b e3bd 39c2 96bd
00000050: 2de3 903e cded 98be 949e b93e 40b4 a7bc
00000060: 3261 fc3d 74bc 1dbd ef7c 1cbd b9f1 c33c
00000070: a06b 203c 1d4f 43bd dc8d a23c 27b3 dcb9
00000080: 2785 3ebd dc14 3e3d ecde b7bd 7d35 7dbd
00000090: cae5 cdbc 044d 8abd b408 7f3c 8110 8fbd
000000a0: 271a 23bd 40b6 69bd fe1a 5bbb 1907 11bd
000000b0: cbce 3fbc 6ac1 1cbc fb52 e0be 54f0 c3be
000000c0: 4a25 82be d754 a0bd 5efb 98bd f268 3dbd
000000d0: 9ffb 473e 3546 51be 3a23 c23c 03a5 c4be
000000e0: db87 58bd 18c5 6b3d daeb 473d cb60 61be
000000f0: c541 6dbe 96bc f0bb 3f76 b1be 1983 683d
00000100: da5e 713f d26d b3be f439 693f e8f3 1c3f
00000110: 5bcb 703e 5b58 81be 7df9 2ebf ffd4 883e
00000120: 9f85 0ebe 0721 603e 5585 123e fc20 473e
00000130: b778 8abc c7f2 0f3e 88b7 193e 2972 bcbd
00000140: 8a0a 2f3e efa4 d7bc 5ef9 a13e 825f d9bd
00000150: 34a0 b53e 6703 2f3f fc94 ce3d 2e73 69be
00000160: 3682 a33c 0805 e0bd f5f4 16be f00d ecbd
00000170: 9474 a5bd 7cc4 23be 6f77 22be 8291 c0bd
00000180: 14f5 1fbe a4e8 20be c228 c3bd 3b65 cdbd
00000190: 5f0a 32bd df51 71be 5b70 aebd 3f8c 12be
000001a0: 10de f1bb 05a9 94be 1c7a 013e 0098 7cbd
000001b0: cc29 5ebe 0978 853d a260 0c3e 271d bcbd
000001c0: e8d2 aebe 6568 1f3e a745 b7bd cace f4bd
000001d0: 6bfa d33d 4076 0c3e adfc 943d 2a62 463e
000001e0: a5a7 d9bd 0b87 b5be 46ff 41be 0947 83bc
000001f0: 23d0 0d3d 8c46 8f3e f10e 533e 3369 973e
00000200: fca4 4bbf 7c51 68bf 5cb6 053f af39 073f
00000210: f2b5 1f3f 73cb 04bf fd36 8abe 97b6 53bd
00000220: 3c5b 473d d5cf 0ebe 608f a4bd feb7 9ebe
00000230: b4d5 7fbe 5405 92be b52a 74be 34c7 48bd
00000240: 1e81 c6bc 5e30 8e3d e530 093e c42d 8e3d
00000250: 225f 88bc d733 3c3e e00c e23d f7df 9ab9
00000260: 5995 2b3d 6d89 113d 1d64 403d 631c 5abc
00000270: 4cc8 b4bd 4e4e 163b 0656 13bd 9ada 2abd
00000280: 7d62 dabd 59bf 9cbd 77b6 703e 7d8d 793e
00000290: dc27 31be 7bd1 d13e 10cb 5fbd eede 3a3e
000002a0: aa24 463e 0119 97be 8f1b c0bd 8672 d0bd
000002b0: df11 eebc c299 803d 5dd9 e6bc 64ee 2abd
000002c0: 5da2 4dbd 995a 8dbd 55fc bc3c 7a99 5d3d
000002d0: 370e 123e fbd5 263e a589 853e a065 4d3e
000002e0: b513 7b3e 4921 363e 7097 083e 1bfe ad3d
000002f0: 6256 363e 4667 c73c 6f73 1eba 8989 543d
00000300: ec57 093e cb27 773e 30b9 ebbc b628 ae3e
00000310: 1d39 313e c429 8cbe ee39 e4bd e0c9 133e
00000320: 5d65 c13d ce83 91be ff9e 013e 190d b73e
00000330: 1941 63be 0566 bd3d 71a8 ae3e 6957 853d
00000340: 744e 9b3e 4c32 543e c137 8abc 17ef 0cbe
00000350: e5d0 36bd 2600 4c3e abc8 633e b8ed 913e
00000360: 43c2 b7bc d653 023e 4339 11be 82d7 873e
00000370: 8a14 98bd 5e24 fa3e 4afc c03e 4f59 b53e
00000380: 24a7 023e c98d 773e 5de2 a4bd e842 8e3e
00000390: fa2d db3e 264d 5d3f 3d28 ed3d 20c3 813d
000003a0: da2e 42be e631 1cbe 9463 92bd b1d5 58be
000003b0: 5ef5 183d f4ad 8c3e 4aa7 c4be a2e8 3a3e
000003c0: e229 b73d 149e d1be 1a60 95bd e4fa 0bbd
000003d0: 0fbb b7be d258 d53e 42c6 72be 9517 0e3f
000003e0: 84a5 c93c 0df2 ca3d 7d83 cdbd 8fda 243e
000003f0: 4b21 98be b756 c1bd ca73 913c 0cfc f73e
-0.052125115 -0.27255914 -0.32603872 0.13967861 0.13468601 -0.18577231 -0.010171637 -0.26758835
-0.20571394 0.5909842 0.18210702 0.5007596 0.19902444 -0.15355016 0.58731705 0.4556322
0.5826875 -0.088398844 -0.11095384 -0.07361264 0.2829832 -0.29868928 0.36253798 -0.020471692
0.12323226 -0.0385098 -0.038205083 0.023918973 0.009791285 -0.04768287 0.019843034 -0.0004209515
-0.046513703 0.04640661 -0.08978066 -0.06181859 -0.025133986 -0.06752971 0.01556604 -0.0698557
-0.039819863 -0.057058573 -0.0033432837 -0.03540716 -0.011707018 -0.009567598 -0.4381331 -0.38269293
-0.25419074 -0.07828682 -0.074698195 -0.04624266 0.1952958 -0.20436938 0.023698438 -0.38407144
-0.052863937 0.05756101 0.04880891 -0.2200958 -0.2316962 -0.0073467 -0.34660527 0.05676565
0.94285357 -0.35044724 0.91104054 0.6130967 0.23515074 -0.25262722 -0.6834944 0.26725003
-0.1391816 0.21887599 0.14308675 0.19446176 -0.016903264 0.14057456 0.15011418 -0.09201462
0.17093864 -0.026323764 0.31635565 -0.1061392 0.35473788 0.68364567 0.1008701 -0.22797844
0.01995955 -0.1093846 -0.14741881 -0.11526096 -0.08078876 -0.15992922 -0.15865873 -0.094027534
-0.15620834 -0.15713745 -0.09529258 -0.10029074 -0.043466922 -0.23566388 -0.08517524 -0.14311312
-0.0073812082 -0.29035202 0.12644237 -0.061668396 -0.21695632 0.065170355 0.13708737 -0.09185248
-0.34145284 0.15567167 -0.08948832 -0.119535044 0.10350498 0.13716984 0.072747566 0.19373384
-0.10627679 -0.35454592 -0.18945035 -0.016025083 0.034622323 0.2798351 0.20611168 0.29572448
-0.7954862 -0.90749335 0.52231383 0.52822393 0.62387 -0.5187294 -0.26995078 -0.051687803
0.048670992 -0.13946469 -0.08035159 -0.3099975 -0.24983865 -0.2851969 -0.23844416 -0.0490181
-0.02423149 0.06942819 0.13397558 0.06942323 -0.016646925 0.1837915 0.11037612 -0.00029540036
0.041890476 0.03553145 0.046970475 -0.013312432 -0.08827266 0.0022934857 -0.03597071 -0.04171238
-0.106633164 -0.07653684 0.23507105 0.2437038 -0.17300361 0.40980133 -0.054637015 0.18249103
0.19349924 -0.29511264 -0.093802564 -0.101780936 -0.029061256 0.06279327 -0.028179819 -0.041731253
-0.05020367 -0.06902046 0.02306954 0.054101445 0.14263235 0.16292565 0.26081577 0.20058298
0.24519236 0.17786135 0.13339019 0.084957324 0.1780639 0.024341237 -0.00060444226 0.051888976
0.13412446 0.24136274 -0.028774828 0.34015435 0.17306943 -0.27375615 -0.11143862 0.14432478
0.09443162 -0.28420871 0.12658308 0.3575218 -0.22192802 0.09247974 0.34112886 0.06510813
0.30333292 0.20722312 -0.016872289 -0.1376308 -0.04463281 0.19921932 0.22244518 0.28501678
-0.022431498 0.12727293 -0.14182 0.26531607 -0.074257925 0.4885587 0.3769248 0.354197
0.12759072 0.2417518 -0.08050988 0.2778542 0.42808515 0.86445844 0.115799405 0.06336045
-0.18963185 -0.1525341 -0.07147899 -0.21175267 0.037343375 0.27476466 -0.3840888 0.18252805
0.089435354 -0.40940917 -0.072937205 -0.034174815 -0.35884902 0.41669327 -0.23708442 0.55504733
0.024615057 0.09909449 -0.10034845 0.16098998 -0.297129 -0.09440368 0.017755408 0.48434484

sub_pixel.0.bias f4 [4]
00000000: 38f0 783d 0efb 453a d712 2bbc 9b3f 69bd
0.060775965 0.00075523637 -0.0104415035 -0.056945425

sub_pixel.0.weight f4 [4, 32, 3, 3]
00000000: 5d07 a1bd 8c3f 2ebe 4319 6abc d053 35be
00000010: 37c5 e5be 6f6c 0ebb 72c5 3ebc e0f5 193a
00000020: 3e55 0dbc 9fc4 f9bb e976 c73c 38a5 ae3d
00000030: cd3f 49bc 854c ac3c 9b29 593d 6ea3 533d
00000040: d817 9a3b c65d 1a3d 0dd6 bd3c 5512 b43d
00000050: 0808 b5bc 3a0e f33d 8d43 623d d893 fd3d
00000060: 8e08 f7bc f5aa a93c d92c 853c 6163 85ba
00000070: 4ad5 2abe 9ba7 45bc 3f82 0cbe dfa3 97be
00000080: 4a48 5b3d ebb7 75bd 05ae a73d 27d1 e9bc
00000090: ccbf 0f3e 8f1d cf3d 12a7 153d d725 f43d
000000a0: d425 ad3d 28ee 1d3e bfcf c63d 275e 8c3d
000000b0: d238 943d 4b30 413d fe64 88bd 54d5 65bd
000000c0: ea29 fcbd 3472 8abe 1930 a93d 4d02 c93d
000000d0: bcc5 99bd 51a3 693d c753 16bd 5ab7 4d3d
000000e0: 5a04 aebc e137 8d3c 61a9 92bd 5463 ae3c
000000f0: 1557 123d 9809 4abd ac79 aa3d ef3f 8f3d
00000100: 75a9 eb3d e32c 883c a4c9 e0bc 3e0b 893d
00000110: a916 d73c 0c7f 623c 078f 933c e84e 9c3c
00000120: 2e89 88bc 7c4a 17be e022 313e 16df a6bd
00000130: 7447 24be f77f ef3c 3ec1 ee3c 8d47 3a3d
00000140: d4ee 4c3e d0a8 173e 2b02 853e 5bd2 92bd
00000150: af47 a43e a07e db3e 7cbf 57bd 921e a9bd
00000160: 3a23 96bd 0403 98bd 6fd6 06be 4a6a 0dbe
00000170: 47ba a4bd 7593 14bd eea5 83bc e6b1 d93c
00000180: 9efb 00be ff8b d2bd bca7 6bbd bc54 88bd
00000190: f870 91be 0c41 4f3d 1e37 a2be 876e 47bf
000001a0: dc39 d63d 0f34 383d a69f 033e 77b3 68bc
000001b0: 555d 8dbd 622f db3d 6c53 c8bd e582 703d
000001c0: e456 c03d 6eec 0abc 3127 cabd 06d5 b7bc
000001d0: 4325 45bd 4a73 f33c fa34 263e 3bb8 8b3d
000001e0: 5540 cfbb e42f 1d3e efa1 003e 0004 edbc
000001f0: e0f3 903d 5f21 f4bb c031 7bbb c9dd 94bd
00000200: d58e 01be cb06 933c e6f1 763d c5c1 c7bd
00000210: ef9d 80bd d47f d0bd 2d77 64bd 5cb0 5cbd
00000220: 7c44 8cbc 56fa 4cbd e6d3 71bd b766 f5bc
00000230: 57c0 febb aebc 013d 1c32 6d3c e6c7 6bbc
00000240: e823 7ebd d746 39be fa93 1e3c a991 4cbe
00000250: a682 16bf 91bc fc3c a787 ef3a b934 ca3c
00000260: f368 c1bb 79d1 f83d ed61 003e 1251 b6bd
00000270: 9ddd 5e3e 0d47 863e 5c5a 71bd e4d7 88bd
00000280: 77d9 bebd 7512 11bd 3949 d3bd 0119 d3bd
00000290: 78e6 e93d f71f 1bbe abd6 cabd d93c c63d
000002a0: 204c 5d3e 25a5 143d e646 873d 8288 123c
000002b0: 5e27 a23d a93c 7b3c e955 2b3d 97a2 713c
000002c0: 6ce4 0ebd 3fd7 483b 130f b13c d5e8 51bd
000002d0: 8eb5 1bbd 38c1 c8bd d5f2 61b9 ae51 e2bd
000002e0: a97a 9bbe a35e 033c 18c5 683b 5cec 7f3c
000002f0: e5f5 f0ba c839 10bd f767 bfbd d064 a7bd
00000300: 7349 97bd d4de 81bd c9d1 31bd f016 ac3a
00000310: cce3 8ebd 036b a0bd 088c cabc 8c44 b63d
00000320: aaa2 be3b a08f 593d 3c85 b83e 06ee dfbd
00000330: af60 c63a d888 b0bd 0b9e 913d 3fbb a0bc
00000340: 2118 97bc 5b6d 00bc be52 dc3c 6cf1 7f3d
00000350: 1851 71bc 51f7 06bd e3fd 713c 4606 f1bc
00000360: 2379 24bd d6af 8dbb 2d80 f1bc 86bc 82bc
00000370: 0497 2d3e 0d0a a4bc bd51 d9bc 96ba 9abc
00000380: bbc2 edbc ba5a dabd 3ecf b1bd 4701 1cbe
00000390: 728f a9bd fc69 9a3e cc02 b2bd bf60 21bd
000003a0: d1df 19be 3ae9 5bbe c8fe eabd 7c3d 21bd
000003b0: 8858 3cbd b305 95bd 05b0 943a 9193 84bd
000003c0: 6511 22be d7a1 b2bd bfe8 febd e923 133d
000003d0: 5547 1d3e fd03 ebbc f085 253e b049 123f
000003e0: 4f6c aebd 0fd4 b5bc 247f cbbd b520 dfba
000003f0: faf4 283c 129e 083d 0b18 b03c 3994 b43c
-0.078627326 -0.17016429 -0.014288249 -0.17707753 -0.44877025 -0.0021732112 -0.011643754 0.0005873125
-0.00862628 -0.007622316 0.024348693 0.08527607 -0.012283278 0.021032581 0.053018194 0.05166953
0.0047025494 0.037687086 0.023173356 0.08792559 -0.022098556 0.11867948 0.055240203 0.123817146
-0.030155446 0.020711401 0.016256737 -0.0010176712 -0.16682926 -0.012063886 -0.1372156 -0.2961721
0.053535737 -0.05998985 0.081874885 -0.028542114 0.14038008 0.1011306 0.036536284 0.1192128
0.08454481 0.1542288 0.09707593 0.06853896 0.072374 0.047165196 -0.06659888 -0.05611165
-0.12312682 -0.27040255 0.08261127 0.09814892 -0.07508418 0.057040516 -0.03670099 0.050223686
-0.02124231 0.01723856 -0.07161213 0.021287598 0.03572758 -0.049325556 0.08323988 0.06994616
0.11506931 0.016622966 -0.0274399 0.066915974 0.026255922 0.013824236 0.018012537 0.019080594
-0.016666975 -0.14774507 0.1729846 -0.08148019 -0.16042882 0.029235823 0.02914488 0.045478392
0.2001298 0.1481049 0.25978217 -0.07169028 0.3208594 0.42870045 -0.052672848 -0.08257784
-0.07330938 -0.0742245 -0.13167737 -0.13810077 -0.08043342 -0.03627344 -0.016070332 0.026574086
-0.12595984 -0.102806084 -0.05753301 -0.06656787 -0.284065 0.050599143 -0.31682676 -0.77903026
0.104602545 0.044971522 0.1285387 -0.014202944 -0.06902567 0.10702397 -0.097815365 0.05871858
0.09391573 -0.008479221 -0.098707564 -0.022440445 -0.04813124 0.02971806 0.16231146 0.068222485
-0.0063248076 0.153503 0.12561773 -0.028932571 0.070777655 -0.007450267 -0.0038329214 -0.07268865
-0.12652142 0.017947575 0.060289286 -0.097537555 -0.062801234 -0.10180631 -0.055777717 -0.053879127
-0.0171225 -0.050043426 -0.059039973 -0.029956205 -0.0077743935 0.03167408 0.014477279 -0.014390921
-0.06204596 -0.1809343 0.009678835 -0.1997744 -0.58793104 0.030851634 0.001827468 0.024683343
-0.0059024035 0.12149329 0.12537356 -0.08902182 0.21764226 0.26226082 -0.058924064 -0.06681803
-0.09318822 -0.035417993 -0.103167005 -0.103075035 0.114209116 -0.15148912 -0.09904226 0.096795745
0.2161107 0.036290307 0.0660532 0.008943679 0.07917665 0.015334287 0.041829977 0.014748237
-0.03488581 0.0030645875 0.021613633 -0.051247437 -0.03801494 -0.098024786 -0.00021548134 -0.110507354
-0.3036702 0.008018169 0.0035517868 0.015620317 -0.0018383829 -0.035211354 -0.093460016 -0.08173525
-0.07387056 -0.06341329 -0.043412957 0.0013129395 -0.069770426 -0.07832911 -0.024724975 0.08899793
0.005817731 0.053115487 0.3603915 -0.10934071 0.0015135015 -0.08619851 0.071102224 -0.019620536
-0.018444123 -0.007838572 0.026894923 0.062486097 -0.014728807 -0.032950703 0.014770004 -0.029421937
-0.040154587 -0.00432394 -0.029480064 -0.015959036 0.16952139 -0.020024324 -0.026528234 -0.0188878
-0.029023519 -0.10661836 -0.086821064 -0.15234862 -0.08279313 0.30158985 -0.0869194 -0.039398905
-0.15026785 -0.21475688 -0.11474377 -0.039365277 -0.045982867 -0.07276478 0.0011343962 -0.064734586
-0.15826948 -0.08722275 -0.124467365 0.03592292 0.15359242 -0.028688425 0.16164374 0.5714369
-0.08516752 -0.022195844 -0.099363595 -0.0017023297 0.010312313 0.033353873 0.02149584 0.022043334
